Password_strength_model.pth (torch, 73176 bytes, 10 tensors)

fc1.weight f4 [32, 13]
000000 0e e1 0d 3e 03 4e f7 bc b2 e5 76 be 4a 94 2d be
       0.13855383 -0.030188566 -0.2411106 -0.16951099
000010 56 d0 50 3e fc 7e 01 bd dd 61 11 bd 1b 6d 15 3e
       0.20391974 -0.031615242 -0.03549372 0.14592402
000020 9c fb b2 bd f6 ac 32 bd 11 8e 45 bd 56 3d 80 3d
       -0.08739397 -0.04362198 -0.04823119 0.06261699
000030 1e 4f 5e be f2 a1 a2 bd e6 55 15 3d 54 1c 04 3e
       -0.21709868 -0.07941045 0.036458872 0.12901431
000040 fe 5a 0a 3e 18 51 52 be 4e 2f 87 be 98 67 59 bd
       0.13511273 -0.20538747 -0.26403278 -0.05307731
000050 a1 27 1f 3e c5 9a 8a be 41 87 a5 bd c0 d5 80 3c
       0.15542461 -0.27071205 -0.08082438 0.015726924
000060 80 fa a8 bc b3 4e 84 3e 11 a2 db 3c 6a 54 a6 3e
       -0.02062726 0.25841293 0.026810678 0.32486278
000070 b9 3c 0a be af c2 7d be d8 5d a1 3d 07 35 65 3e
       -0.13499726 -0.24781297 0.078792274 0.2238351
000080 83 fe 40 3e ee 6e e9 3d d0 95 90 be ee c4 fc bd
       0.18847089 0.11398111 -0.28239298 -0.12342249
000090 73 e9 05 3e cf 47 66 bd 4b 83 0e bc 13 65 55 3e
       0.13077335 -0.056220826 -0.008698295 0.20839338
0000a0 c8 1e 40 3d 57 1a 15 3d f0 25 a0 3e 9f c0 96 3d
       0.046904355 0.036402073 0.31278944 0.07360958
0000b0 99 30 8b bd e6 6a 8f 3d df 4f b1 bd 75 ba 43 be
       -0.06796379 0.07002811 -0.08657812 -0.19114096
0000c0 8c 9f 90 bd b6 2c b4 bd 04 9f 48 3d b6 a4 7d be
       -0.07061681 -0.087975904 0.048979774 -0.24769863
0000d0 54 41 84 bd e8 20 fd 3d 53 49 ee bb 75 8e 21 3e
       -0.06457773 0.12359792 -0.0072719245 0.15777
0000e0 e8 c5 83 3c 98 bf c7 3d a8 8a c1 3d 13 e4 25 be
       0.01608558 0.097533405 0.09450275 -0.16200285
0000f0 52 e0 83 3e 74 1c a2 bb 77 1a c5 bc f3 04 00 be
       0.2575708 -0.0049472395 -0.024060471 -0.12501888
000100 de b5 46 be 50 ee 99 3c a1 24 59 3e fd c8 83 3d
       -0.19405314 0.018790394 0.21205379 0.0643482
000110 c7 64 cc 3a 2c af 91 3d d6 6d 1a bd d2 15 4d 3c
       0.0015593999 0.071134895 -0.037702404 0.012517409
000120 17 5c b2 bd f0 74 33 be 5e 4c e2 bc 2c 7f 84 3d
       -0.08708971 -0.17525077 -0.027624305 0.064695686
000130 a4 07 4c bd 47 c3 91 3e 0c f0 b0 3d ba 54 f9 bc
       -0.049811974 0.28469297 0.08639535 -0.030435909
000140 2b 1e 56 3d 25 92 0e be ba 7b a2 3e ae 94 2b be
       0.052274864 -0.13922937 0.3173502 -0.16755936
000150 3a fe 82 3d 13 29 e6 bd 96 b1 55 3e 98 6d 62 bb
       0.06396146 -0.11238303 0.20868525 -0.0034550186
000160 a7 82 c2 bc 57 eb cf 3c 4a b8 14 3e a7 15 11 3d
       -0.02374394 0.025380773 0.14523426 0.03542104
000170 7c 7a 21 3e 03 67 46 bd e9 b7 d5 3d ea 15 b6 3c
       0.1576938 -0.048438083 0.10435469 0.022227246
000180 43 2d 80 bd 88 f5 ec bd 77 c6 1f 3d 9f cd 30 3c
       -0.06258633 -0.11570269 0.03900763 0.010791211
000190 e7 7c 17 be 7d 6e 8e 3e 82 a9 67 be 23 cb f3 bd
       -0.1479374 0.2781867 -0.22623256 -0.1190398
0001a0 e8 60 9a bd 5a 77 75 3e 45 64 2f be 01 93 61 3c
       -0.07538015 0.2397131 -0.17128094 0.013767959
0001b0 ff 5c ed bc 5a f3 51 3e 1f b3 a3 3d e4 6d 5a 3e
       -0.028975008 0.20502988 0.07993149 0.21330982
0001c0 a2 35 a6 3e 11 1c 89 3e c4 96 0f be 29 13 92 be
       0.32462794 0.26779225 -0.14022356 -0.28530243
0001d0 69 46 8e 3d 08 0c 5e 3e 54 0c 7f be 1f c9 8d 3e
       0.069470234 0.21684277 -0.24907047 0.27692506
0001e0 de a2 1d 3d 03 4f 90 bd 5b 02 34 3d 8b 25 42 3d
       0.0384854 -0.0704632 0.04394756 0.047399085
0001f0 53 ec f7 bd 86 48 cb bd 98 5f e1 3d 6d 1a be 3d
       -0.12105622 -0.09925942 0.11004561 0.09282384
000200 9e 94 65 be 5b 67 e8 bd 01 4c 4e 3d b8 5e b7 3d
       -0.22419974 -0.113478385 0.05036545 0.08953613
000210 cf 85 a3 3e 46 1f 1e 3e 64 2a 0d 3d 80 fe 47 be
       0.31938025 0.15441617 0.034464255 -0.19530678
000220 c7 74 3f 3e 91 ad 06 be 6f b6 d2 be 6c 51 80 3e
       0.18696891 -0.13152148 -0.4115481 0.2506212
000230 d1 d0 2a be 11 5f 98 3e 8c 9f 5a 3a ce f3 10 3e
       -0.1668122 0.2976003 0.00083398144 0.14155504
000240 c1 0f 89 be 97 82 02 3e 84 d8 32 3e e3 bc 9d 3d
       -0.26769832 0.12745129 0.17465407 0.07702043
000250 72 85 60 3e 83 4c 78 3c 87 b3 5c be 23 2c 97 3c
       0.21925905 0.015154961 -0.21552859 0.018453663
000260 ec f5 eb bd d3 7e b0 3d 7f 83 72 be 9b 05 48 3e
       -0.11521515 0.0861794 -0.23682974 0.19533388
000270 5a 8d 5f 3e 1a 02 8b 3e 75 4b 30 bc 56 9b 36 be
       0.21831265 0.2715004 -0.010760178 -0.17832693
000280 fb 9d d1 3d d1 5d 74 bd da ad de 3d 6c 3b d7 3d
       0.102352105 -0.059659783 0.10873003 0.10509381
000290 d7 9a 05 bf 38 fa 3f be 23 43 b6 3d 17 da 03 be
       -0.5218939 -0.18747795 0.08899524 -0.12876163
0002a0 44 61 4b 3c c8 43 c6 3d 5e 7e ed bc d1 f0 a7 3d
       0.012413327 0.09680897 -0.02899092 0.08200229
0002b0 b3 74 16 3e 06 1e 60 3e 59 0d 5f be 92 2b 95 bd
       0.14692955 0.21886453 -0.21782435 -0.07283701
0002c0 31 d3 42 be 40 a1 67 bc c0 7c 57 bc 17 68 4e 3e
       -0.19025876 -0.014137566 -0.013152301 0.20156895
0002d0 94 c6 32 be c1 6f 00 be 58 69 4f 3d 1b f4 ba bd
       -0.17458564 -0.1254263 0.050637573 -0.09128591
0002e0 04 2b 9f bd 91 a8 b2 be be 91 2d 3e 0d d4 92 3c
       -0.077718765 -0.3489423 0.16950127 0.01792338
0002f0 54 57 43 3c dd 48 28 be 75 42 96 bd 7d e5 66 3e
       0.011922676 -0.16434045 -0.073368944 0.2254848
000300 16 70 42 3e dd 22 57 bc b8 ef 66 be be 2d 90 3e
       0.1898807 -0.013130871 -0.22552383 0.281599
000310 b6 2a 19 3e 72 cb 52 3e ac 5b 5a 3d 6d 1e 15 be
       0.14957699 0.2058542 0.05331008 -0.14562388
000320 28 36 80 3e fa c3 26 3e f7 d4 65 bc 15 71 c3 be
       0.25041318 0.16285697 -0.014027826 -0.38172212
000330 f6 25 3e 3d d6 35 47 be ff a5 08 be a8 2f f8 bd
       0.04642292 -0.1945413 -0.13344572 -0.12118465
000340 fd 27 87 3e ea e8 aa bd d6 9a 1c be e7 9b bf bd
       0.26397696 -0.08345206 -0.1529344 -0.09355908
000350 b1 90 69 be 0a 6f 00 be 1b f0 0f be 2a b0 88 be
       -0.22809102 -0.12542358 -0.14056437 -0.26696903
000360 79 b2 03 3d ed c5 25 3d 80 14 32 be c1 e8 57 bc
       0.032152627 0.04047196 -0.17390633 -0.013178051
000370 d3 cc 7e 3e 7e 92 3f be b5 3a 66 be ac e3 aa 3d
       0.24882822 -0.18708226 -0.22483332 0.08344206
000380 20 2e 46 3d 32 3f 25 bc 89 13 82 3e 67 fb 1e be
       0.048383832 -0.010085868 0.2540553 -0.1552559
000390 7d f5 1b 3d 86 16 0b bd 43 25 59 bc a3 2f 8b 3e
       0.038075913 -0.033957027 -0.013253513 0.2718478
0003a0 7b 34 7a be dc 57 5d 3e ce 34 82 3c 79 0f a7 bd
       -0.24434082 0.21615547 0.01589432 -0.08157248
0003b0 f9 af 80 be 2c 5c a3 3e 8c e7 3f be b2 33 85 bd
       -0.25134256 0.3190626 -0.18740672 -0.06504001
0003c0 28 f1 1b 3d 43 34 6e be 2f 96 fb bd 9d 85 a3 3c
       0.03807178 -0.23262124 -0.122845046 0.019961173
0003d0 e4 fd 80 3d 66 25 63 be 3f cf d5 bd 13 f8 65 be
       0.06298426 -0.22182235 -0.1043992 -0.22457914
0003e0 90 91 64 bd 61 2e 7e be f2 73 19 be b3 30 81 be
       -0.05580288 -0.2482238 -0.14985636 -0.25232467
0003f0 60 ff 24 bd 08 9e 88 be 36 c8 f9 bd 58 1c 27 bd
       -0.040282607 -0.26683068 -0.1219639 -0.040798515

fc1.bias f4 [32]
000000 5f da 87 3e f3 9b f9 bd 0b 67 0c be 78 77 8b be
       0.2653379 -0.12187948 -0.13711183 -0.27239585
000010 03 17 a5 3d 57 6f 7a be e9 85 c6 3e 80 28 f7 bd
       0.0806103 -0.24456535 0.3877404 -0.12068272
000020 fc 1f 88 3e 5f fc 63 3c ff b3 cc 3c ee 45 be be
       0.26586902 0.01391515 0.024988173 -0.37162727
000030 6a 93 92 be f8 53 c7 be 28 25 05 be 07 80 d5 be
       -0.28628093 -0.3893125 -0.13002455 -0.4169924
000040 4b 87 8f be 0f 55 8a be 29 7b 06 be df 60 89 3e
       -0.28032908 -0.2701802 -0.1313292 0.2683172
000050 9f 16 9e be fc 78 a6 3e f8 40 ac 3e a0 67 6a be
       -0.30876634 0.3251418 0.33643317 -0.22891092
000060 d4 c5 88 bd df a1 05 3e 4a b4 9a be 93 63 87 be
       -0.06678358 0.1305003 -0.30215675 -0.26443157
000070 9b 40 c8 3e fe 41 25 3e ac 81 9c be ab aa 36 3e
       0.3911179 0.16138455 -0.30567682 0.17838542

fc2.weight f4 [128, 32]
000000 a2 52 d1 bd 4a 48 1a be df 64 61 3e 33 d4 f2 3a
       -0.10220839 -0.15066639 0.22011136 0.0018526375
000010 91 be 10 3e 5a a0 87 bd e1 de 9f 3d a4 f0 b7 bd
       0.14135195 -0.066223815 0.07806183 -0.089814454
000020 c6 d4 35 ba 19 0a e8 3d a9 53 d0 3d 9a 7d 5c bc
       -0.0006936308 0.11330051 0.10172207 -0.01345768
000030 02 ac 56 3e 78 b1 f4 3b bd ab c8 bd a7 4d 6b 3c
       0.20964053 0.007467445 -0.097983815 0.0143617755
000040 a8 f4 06 bd 2d dc 34 3e a6 2a a5 bd 58 d3 78 3d
       -0.032948166 0.17662115 -0.08064775 0.060748428
000050 a6 65 85 3d 2a c6 b4 3c c3 e7 a9 bd 78 ad c9 ba
       0.065135285 0.022067148 -0.08296158 -0.0015386781
000060 f5 fa e5 bd 3f b7 00 be 7e 70 12 be 53 23 5b bc
       -0.11229507 -0.12569903 -0.14300725 -0.013375121
000070 a3 c7 02 be 56 f4 68 3d 66 30 8d 3d b4 be 10 be
       -0.12771468 0.056873642 0.06893997 -0.14135247
000080 99 20 bd 3d 3d f2 e3 3d c4 36 d4 3d dd 8e a6 3d
       0.09234733 0.11130188 0.10362008 0.08132718
000090 ff ee 05 be 2e b7 37 3e 50 6f 6a 3c b3 c7 d7 bd
       -0.13079451 0.17940971 0.0143087655 -0.105361365
0000a0 59 0a db 3d 3a d1 7c 3d 22 d0 df bc e9 68 fe 3d
       0.10695333 0.06172297 -0.027320925 0.12422354
0000b0 dd 51 35 3e 30 db 06 3d c3 4d 30 3e 85 1f ad 3c
       0.1770701 0.032923877 0.17217164 0.021133194
0000c0 c4 f3 0e bd 85 91 0b be 6a ec b1 3d f4 be 3c 3d
       -0.03490044 -0.1362973 0.086876705 0.046080545
0000d0 80 2a 7c 3d a7 9d 87 3b ea e6 99 bd e6 ee 14 3e
       0.06156397 0.0041386667 -0.075147465 0.14544258
0000e0 2e fb 91 bd c8 e8 2a bd 84 58 a9 3d e5 17 17 be
       -0.07127987 -0.041725904 0.08268836 -0.14755209
0000f0 2e 3e 50 be d3 9f e3 bd 44 e9 64 bd 44 ba bd 3d
       -0.2033622 -0.111144684 -0.055886522 0.09264043
000100 d5 96 0a 3e 2e 12 cc 3c cf e4 11 3e 7d d7 60 bd
       0.135341 0.024911013 0.1424744 -0.054893006
000110 6c 07 09 be 47 9f 56 be 06 f3 07 3e 8b d3 bb 3d
       -0.13381737 -0.20959197 0.132763 0.09171208
000120 c9 88 a0 3d 36 4f 72 bd a9 1b 01 be 12 1f b6 bd
       0.0783859 -0.059157573 -0.12608208 -0.08892645
000130 a0 6a 00 3e 93 7d b0 3d 28 3e 2b 3d 92 a4 f4 3c
       0.12540674 0.086177014 0.041807324 0.02986363
000140 fa c1 ea bd 1c fb 32 3e be 04 31 3e 28 53 02 bd
       -0.11462779 0.17478603 0.17286965 -0.031817585
000150 b0 04 ed 3d da ea 36 3e 76 8d 40 3d ae 5d 41 be
       0.1157316 0.17863026 0.047009908 -0.18883392
000160 31 4f bd 3b c2 94 83 3c 96 26 ac bd 9e a2 21 be
       0.0057772626 0.016062144 -0.08405797 -0.1578469
000170 d3 8e c4 bd 1d de fc 3d 9e ad cb 3d 79 cd 15 3d
       -0.09597554 0.12347052 0.09945224 0.036572907
000180 5c 90 94 bd ce 3d 13 3e 2c 8d 6d 3e 63 57 12 3e
       -0.07254097 0.14379045 0.23198384 0.14291148
000190 7f ae 9e bc 6d 83 09 3e 4d 57 d8 bc 39 26 83 bd
       -0.019370316 0.13429041 -0.026408816 -0.06403775
0001a0 cf 61 20 3e 63 40 18 be 92 29 35 3d 1d 2e eb 3d
       0.15662311 -0.14868312 0.044229098 0.11483405
0001b0 f4 49 30 3e b6 fc d0 bb e7 22 7b 3c 73 1b 5d 3e
       0.17215711 -0.0063777817 0.015328146 0.21592502
0001c0 77 ae c8 3d 7e df 98 3d 7c 4c 9f 3d 7e 2f c8 3d
       0.097989015 0.07464503 0.0777826 0.097746834
0001d0 b2 7f 09 3e 79 d4 4d be d7 6c 9b ba e0 55 b3 bd
       0.13427618 -0.20100583 -0.0011857998 -0.08756614
0001e0 a9 da e4 3d a0 19 5b 3d 37 4e a1 3d 25 dc 1c bd
       0.111745186 0.053491235 0.078762464 -0.038295884
0001f0 35 96 5b 3d bf b6 cb 3c 60 74 20 3e 7e af 0e be
       0.053610045 0.024867414 0.15669394 -0.13934132
000200 a5 73 f4 3d 64 71 33 bd 6e be 3a 3d 17 2a 74 3d
       0.1193612 -0.04380931 0.045591764 0.059610453
000210 63 d6 28 3e 5b e2 8d 3d 0e ec 34 3b 14 3c ba 3d
       0.16488032 0.069279395 0.002760652 0.0909349
000220 8b e7 fd 3d 3d f8 95 bd a5 67 ed bb 0f df e3 3c
       0.12397679 -0.07322738 -0.0072450214 0.027816324
000230 f8 11 11 3c ba dc df 3d dc d1 88 bd d9 eb 19 bd
       0.008854382 0.10930772 -0.066806525 -0.037578437
000240 5a 5b 5f bd 7d a8 64 bc 62 82 50 bd 80 24 4f bc
       -0.05453048 -0.013956186 -0.050905593 -0.01264298
000250 76 6f ed bd 68 e7 80 bd 61 c2 57 be b6 db f6 3d
       -0.11593525 -0.06294137 -0.21070243 0.12053625
000260 cd d5 fd 3b 86 57 34 3e d1 28 d7 bd d5 fa db bd
       0.0077464343 0.17611513 -0.10505832 -0.10741202
000270 66 4e 4a be 44 3b 1c bd 05 06 04 be 55 82 f4 3b
       -0.19756469 -0.038142458 -0.12892921 0.007461826
000280 48 18 ef bc e0 c0 94 3b 80 00 00 3d a0 4b fc 3c
       -0.029186383 0.004539594 0.031250477 0.03079778
000290 3b df a9 bd 54 7e 21 bd ae cc 60 bd ae 36 a2 bd
       -0.08294531 -0.039427117 -0.054882698 -0.079205856
0002a0 e0 a9 b0 3c 8f 5a 0c be 00 71 1e bc 2e 81 b8 3d
       0.021565378 -0.1370642 -0.009670496 0.09009014
0002b0 d8 88 28 bd a8 e4 a3 bd a0 c0 cf bc 28 f0 ef bd
       -0.04114613 -0.08002597 -0.025360405 -0.11715728
0002c0 f6 1d f4 3d 10 5d 56 bc 6e e2 f3 3d 4c a8 1c be
       0.11919777 -0.013083711 0.119084224 -0.15298575
0002d0 d6 7d fc bd e0 19 58 3d 2a 6f 9c 3d 80 32 5c 3b
       -0.12328689 0.05275905 0.0763839 0.0033599436
0002e0 80 c5 7a 3c 5a b3 0d be 22 ff 9d 3d ec f3 7a bd
       0.015305877 -0.13837948 0.07714678 -0.06126778
0002f0 c2 28 ba 3d 5c 8b 3f 3d 51 16 00 3e ac 1d 4f bd
       0.09089805 0.046763763 0.12508513 -0.050565407
000300 f1 e9 31 be 72 0a 1c bd da 5f c6 bd 50 3d ba bd
       -0.17374398 -0.0380959 -0.09686251 -0.09093726
000310 28 a3 a5 bc ee fc cd bd fa f0 16 3e c5 b1 2f 3e
       -0.0202194 -0.10058008 0.14740363 0.17157657
000320 90 a5 91 3d 3f ba ec 3d a5 9c 20 be 8e 99 a5 bd
       0.07111657 0.11558961 -0.15684755 -0.08085929
000330 fd 47 aa bd 2b bf 27 bd 14 ad 27 bd 6c 07 b6 bb
       -0.08314512 -0.040953796 -0.040936545 -0.005555084
000340 b5 b5 b0 bd 20 69 00 3d 00 56 9a b9 e6 20 07 be
       -0.08628408 0.031350255 -0.00029437244 -0.13196144
000350 fb 91 15 be f7 6c 15 3e 6a 1b 66 bd f4 b0 ff 3d
       -0.14606468 0.14592348 -0.056178488 0.12484923
000360 88 98 86 3d 3f 37 cd 3c 0e 1a 85 ba 26 79 87 3d
       0.06572062 0.025050757 -0.001015486 0.06614904
000370 a1 d4 84 bd 28 58 bc 3d b4 b8 c0 3d de ab a0 bd
       -0.06485868 0.09196502 0.09410229 -0.07845281
000380 90 3d c9 3d f1 ae b3 3c 0c 94 08 bd c7 16 c1 3d
       0.09826195 0.021934005 -0.033344314 0.094281726
000390 65 27 57 be cf a1 91 bd 0b 1f 4f bc e8 5e 12 3c
       -0.21011122 -0.07110941 -0.012641679 0.00893376
0003a0 36 d5 9a bd 82 07 ac 3d 68 9c 15 3e 4c 66 df 3d
       -0.07560198 0.083998695 0.14610445 0.109081835
0003b0 78 c6 e0 3d 87 c3 4c 3e 96 df 68 3d 7f 46 a5 3d
       0.10975355 0.19996463 0.056853853 0.08070087
0003c0 56 ca 82 bd c5 d1 d9 bd 8b 09 72 bd 80 3a c3 3b
       -0.06386249 -0.106357135 -0.059091132 0.0059579015
0003d0 e0 64 85 bd fe 88 14 3d bb f1 96 bd c9 6a 0a be
       -0.06513381 0.03626346 -0.07370325 -0.13517298
0003e0 bc 2f 02 be fb ec fd bd 8f 35 ba bd 0f db f0 bd
       -0.12713522 -0.12398716 -0.09092247 -0.11760532
0003f0 85 cd 63 3d 6f 41 60 bd 16 de 28 bd dc 2c 02 3e
       0.05561592 -0.054749902 -0.041227423 0.12712425

fc2.bias f4 [128]
000000 fe 35 c7 3b 31 f4 3c be 8d ea 39 3e 58 48 85 be
       0.0060794344 -0.18452527 0.1815588 -0.26031756
000010 52 6f 0e 3d c4 77 fc bd f4 ac 33 be 1c 91 2d be
       0.034774132 -0.12327531 -0.17546445 -0.16949886
000020 ea f1 61 3e ba 97 c5 bd 1d aa 4b 3e b4 db ed bd
       0.22064939 -0.0964808 0.19889112 -0.11614171
000030 43 43 82 be 8f 34 52 bd c3 cf e1 3b 44 01 05 be
       -0.25441942 -0.051319655 0.006891222 -0.12988764
000040 c4 bc 4a 3e c0 24 31 be 50 3b 37 3e 94 07 e2 bd
       0.19798571 -0.17299175 0.1789372 -0.11036602
000050 a4 2b 1c be 72 67 47 be ae c7 2b be b4 66 32 be
       -0.15251023 -0.19473055 -0.1677539 -0.1742199
000060 31 59 88 3e 3c 02 ed bd 74 90 98 bd ad 62 43 bc
       0.26630548 -0.11572692 -0.07449427 -0.011925382
000070 b2 34 b9 bc 6e 8d 6a be 24 21 c5 bd 2c 19 34 be
       -0.022608135 -0.22905514 -0.09625462 -0.17587727
000080 78 bd e3 bc 38 ea fb bd 5a 28 36 3d b6 63 a1 be
       -0.027800307 -0.12300533 0.044472076 -0.31521386
000090 05 4a 05 be 84 cd e9 3d 44 8d e9 3d b4 21 f4 bd
       -0.13016517 0.11416152 0.114038974 -0.11920491
0000a0 f4 f3 19 38 53 df 7c bd 54 f9 76 bd 97 ab 16 be
       3.670524e-05 -0.061736416 -0.06029637 -0.14713894
0000b0 b6 da 62 be f1 b4 9e bd 2b 86 59 3e 02 43 8b be
       -0.22153744 -0.077493556 0.21242587 -0.2719956
0000c0 08 eb 64 be cb 95 a3 3e b5 24 ef 3d 4e 62 7a 3e
       -0.22355282 0.3195022 0.11676923 0.24451563
0000d0 78 ae 50 3e 53 d8 94 be 2e 64 1f be 55 37 b9 bc
       0.20379055 -0.29071292 -0.1556556 -0.022609392
0000e0 d3 a8 9a bd b0 a4 ef 3d 12 7b be bd 2b a4 2b be
       -0.07551732 0.117013335 -0.093008175 -0.16761844
0000f0 7f 3e e4 3c f3 87 2d 3d b4 27 31 be d0 a7 fd bd
       0.027861832 0.04236598 -0.17300302 -0.12385523
000100 4b b3 40 3e 6f 63 28 be 5f 34 8f 3e 66 53 58 be
       0.18818395 -0.16444181 0.27969643 -0.21125564
000110 64 3f 8f 3d 80 c7 f1 bd 80 c4 f1 ba ed b2 56 3e
       0.06994513 -0.1180563 -0.0018445402 0.20966692
000120 e0 fd 01 be 08 75 22 bd 00 bc 14 3b 57 a5 21 3e
       -0.12694502 -0.03966239 0.0022695065 0.15785728
000130 0c 2d 6e 3e 7d ec bf 3d 53 af 18 be 47 9b 13 be
       0.23259372 0.093712784 -0.14910631 -0.14414702
000140 86 62 a7 3e 8c 3b 9e be da 85 e1 bd 05 58 37 bc
       0.32692355 -0.30904806 -0.11011858 -0.011190419
000150 61 c2 5f 3e cb 26 24 3e 2f 23 fc 3d f4 f1 1d 3e
       0.21851493 0.16030423 0.12311398 0.15424329
000160 46 fb 25 be 73 ca 60 3e 31 53 1b 3e d9 98 25 3e
       -0.16209134 0.21952228 0.15168454 0.16171588
000170 50 cb b3 3e 87 e5 71 3d 80 ef ea 3d 73 a8 0d 3e
       0.35116053 0.059056785 0.11471462 0.1383379
000180 87 53 93 bd c5 62 93 be c0 b1 27 bb 81 ac 8f ba
       -0.07193666 -0.28786293 -0.0025588125 -0.0010961444
000190 0c 0a 2f bd 10 2b 6b 3e ab 07 1f be d3 44 85 bd
       -0.04273419 0.22965646 -0.15530269 -0.06507268
0001a0 5b 10 2b bd c2 77 d8 3d 2a b8 a1 3e af 1b 9d 3e
       -0.041763645 0.10569717 0.3158582 0.30685183
0001b0 a3 52 9c bd 34 91 03 be ce db d2 bd a9 a7 6a 3e
       -0.07632949 -0.1284836 -0.10295831 0.2291552
0001c0 3f 0d 27 3d e7 c7 91 3e 16 f5 d8 3d f8 fd b7 3d
       0.040784117 0.28472826 0.105936214 0.089839876
0001d0 98 82 49 3d dd 6f 43 be 37 93 1e be 41 49 1c bd
       0.04919681 -0.19085641 -0.15485846 -0.038155798
0001e0 07 68 6a bc 00 b8 0b be 67 76 76 be aa ca 10 3e
       -0.014307029 -0.13644409 -0.24068604 0.1413981
0001f0 90 5a 63 bc 1c 9a 9b 3e ae 6b 6a 3e 62 75 32 bd
       -0.013876572 0.30391014 0.22892639 -0.043568976

fc3.weight f4 [64, 128]
000000 b0 98 a0 bd 78 4b 09 3d e3 cb 88 3d 1e 08 40 be
       -0.07841623 0.03351924 0.06679513 -0.18753096
000010 a9 a1 2a 3c ae 4e 34 3d ef b6 26 3c df 86 d5 3d
       0.010414519 0.044020347 0.010175451 0.10426115
000020 2b 3e b7 3d 5b 08 64 bd 13 49 10 3d b6 6a 8a bd
       0.089474045 -0.05567203 0.03522594 -0.06758635
000030 81 c5 2e be d3 6f a2 bc 65 25 f8 3d da 08 ba bc
       -0.1706753 -0.019828713 0.121165074 -0.022709299
000040 c8 9e 32 3e 3b 1b 98 3d 40 5a 88 3d 1f 6a 32 bd
       0.17443383 0.07427069 0.06657839 -0.043558236
000050 a6 f9 d9 bd a4 53 53 bd b0 cd 13 bd 55 f0 58 3c
       -0.1064332 -0.051593438 -0.03608483 0.013240893
000060 49 f8 f0 3d d2 fc 49 3d e6 06 5e 3d 7c 6e 0a 3e
       0.11766107 0.049313374 0.054205798 0.13518709
000070 52 47 22 be 65 dd 08 be 23 ad 02 3e 26 b6 16 be
       -0.15847519 -0.13365705 0.12761359 -0.14717922
000080 04 1f 2b 3d 39 7c 36 be 90 1c f1 3d 2e 97 22 be
       0.041777626 -0.17820825 0.11773026 -0.15877983
000090 95 0c 2e 3c ff 89 82 3d bd 6a 29 3d 5f 89 e0 bc
       0.010623117 0.06373977 0.04136156 -0.027409254
0000a0 32 d1 78 bd 56 27 b6 3d 20 dd 68 3d bd 71 34 be
       -0.06074638 0.088942215 0.056851506 -0.17621513
0000b0 fe cd 24 be 50 95 91 bd d9 b2 64 3e c2 f6 99 bb
       -0.16094205 -0.07108557 0.2233385 -0.0046986053
0000c0 b8 0b 81 bd 87 ad 83 3d 03 5d 51 3d 41 fd 94 3d
       -0.06301063 0.06429582 0.051114094 0.07274867
0000d0 39 4d 8c 3d bf 88 17 be 43 4d 8f 3d a4 36 17 bd
       0.068506666 -0.14798258 0.069971584 -0.036917344
0000e0 9a a2 54 bd 89 72 22 3d 65 d9 36 3d dc d3 1e 3d
       -0.05191288 0.03966001 0.044640917 0.038776264
0000f0 4e e0 c4 3d 80 ce 2b 3d 75 a8 ab 3d 03 20 a7 3d
       0.09613095 0.04194498 0.0838174 0.081604026
000100 19 2c b7 3d 7b e6 e1 bc 2c de fc 3d e7 a0 1d bd
       0.08943958 -0.027575722 0.123470634 -0.038483527
000110 2c 07 b8 3d 9d 8d a3 3d 1b 7c a2 3d 9d df a8 3d
       0.08985743 0.07985995 0.079338275 0.08245776
000120 7c f2 06 3d d2 4c b3 3d 88 17 b2 3d 11 10 d0 3d
       0.032946095 0.08754887 0.086958945 0.101593144
000130 59 06 29 3e 98 3d 8b 3d 04 b3 98 bd aa 37 ae bd
       0.16506328 0.067988575 -0.074560195 -0.08506711
000140 f7 72 ad 3d 88 c2 ca bd a5 f5 50 bd 74 40 54 bd
       0.084691934 -0.09900385 -0.051015515 -0.05181928
000150 f7 c4 e4 3d 08 cc 4e 3c 7c a5 b4 3c 0a 07 6e 3c
       0.111703806 0.012621887 0.022051565 0.014528045
000160 05 5a 80 3d d5 3b 11 3e 00 3c 45 3d a8 ec d2 bc
       0.0626717 0.1418298 0.048152924 -0.025747612
000170 cc 32 48 3e b5 e8 d9 3d 59 d3 8c b8 ab 61 90 3d
       0.19550627 0.106400885 -6.715087e-05 0.07049879
000180 b6 51 af bd b4 fd c9 bb 7a 47 ab bd fb 28 73 bd
       -0.08560507 -0.006164277 -0.083632424 -0.059365254
000190 d6 09 00 bd 38 5f e7 3d d9 d7 08 bd 99 ab 8b 3d
       -0.03125938 0.112974584 -0.033408973 0.06819839
0001a0 87 36 8f bb de b5 38 3e 8f 99 04 3e 24 d8 48 3d
       -0.004370514 0.18038127 0.12949203 0.049034253
0001b0 ed 24 40 3d 18 f2 49 bc 49 d6 05 3d 29 77 c7 3d
       0.046910215 -0.012325786 0.03267506 0.09739525
0001c0 b6 de b4 3d 8d e6 66 3d 00 c2 bb b9 95 60 92 bc
       0.08831541 0.056372214 -0.0003581196 -0.01786832
0001d0 9c 8f 76 3d 00 78 8c bd 4d 46 19 bd f5 bd 69 3d
       0.06019555 -0.06858826 -0.03742056 0.057065923
0001e0 15 45 96 bb ea cb 5e 3d 7d b2 c0 bd b2 16 9d 3d
       -0.004585872 0.054393686 -0.09409044 0.076703444
0001f0 90 9f 84 bc 73 b0 00 3e ab 08 0e 3e 62 fd df 3d
       -0.016189367 0.1256731 0.13870494 0.10937001
000200 01 41 dc 3a 69 fe d8 3d 31 96 9a bd 3e 5e 8f 3d
       0.0016804041 0.105954 -0.07548178 0.07000397
000210 99 70 b0 3d f6 b0 18 3d a2 85 0f 3d 4e 6c d4 3d
       0.08615226 0.037278138 0.03503955 0.1037222
000220 c9 de 6e 3d e5 e1 13 3e 43 7b 1b 3d 19 67 19 bd
       0.058317933 0.1444164 0.03795935 -0.037451837
000230 3b 4d 2a 3e 62 c6 c4 3c c0 d1 9c 3c 76 02 1a 3e
       0.16631024 0.024020378 0.019142985 0.15040001
000240 57 27 67 be 42 96 e7 bc 2a a0 44 bd 7b 5b 97 bb
       -0.225736 -0.02826989 -0.048004307 -0.0046190596
000250 fc 57 13 3e f8 46 e5 3d d2 cc 28 bd 80 24 66 3d
       0.14389032 0.11195177 -0.041210957 0.056187153
000260 ef 38 d9 bd 44 aa af 3c 0d ef b7 bd cc 79 09 be
       -0.10606562 0.021443494 -0.08981142 -0.13425368
000270 fc 53 37 3e 3c 69 09 3e 27 35 6e bd 8e 20 1d 3e
       0.17903131 0.1341905 -0.05815616 0.1534445
000280 ba 54 b1 3d 18 b0 de 3d c0 d5 75 bd b5 1f 13 3e
       0.086587384 0.10873431 -0.0600183 0.14367564
000290 38 ef 13 3e 43 c7 96 bd 38 5f 9f 3d 47 a9 cb bb
       0.14446723 -0.07362225 0.077818334 -0.006215248
0002a0 35 9d 60 3d b2 39 e4 3c 87 8b 29 3d 30 6f aa 3d
       0.054837424 0.027859543 0.04139283 0.083219886
0002b0 42 f7 3f 3e 00 0d 0e 3a c9 dd 27 be 38 79 00 3e
       0.18746665 0.0005418807 -0.16393198 0.12546241
0002c0 65 77 25 3c cb 53 bb bd d3 ad 3f 3c 86 cc 8e bc
       0.010099267 -0.091468416 0.011699158 -0.017431509
0002d0 f7 d0 04 3d 29 54 cb 3d b2 7f 4d 3d e0 ca d6 3d
       0.032425847 0.09928162 0.050170608 0.10487914
0002e0 6e 0e 7f bd 0c 09 3b bd 82 65 ab 3c 69 91 45 3c
       -0.06226962 -0.045662925 0.020922426 0.012058594
0002f0 b6 22 00 3d 76 57 b3 bd 34 49 a3 bd 2e bd 33 3d
       0.031283103 -0.08756916 -0.07972947 0.043881588
000300 1b 79 a3 3c 59 32 b4 3c 72 42 6e bd 11 ba d1 3d
       0.019955209 0.021996664 -0.058168836 0.102405675
000310 1a 43 83 3d e0 28 ed 3c 35 59 89 3d 48 c7 eb bd
       0.06409283 0.028950155 0.06706468 -0.11512619
000320 fa 27 0a 3d 90 56 2d be 2b cf 35 bc 8a 8c 0c be
       0.03372953 -0.16927552 -0.011096756 -0.13725486
000330 5f 36 9b bd 57 d2 8c bd d1 ea 92 bd 25 70 ae bc
       -0.0757873 -0.06876057 -0.07173694 -0.021293709
000340 ac ba b5 bc 0c 01 81 3d 00 d6 bd b9 b0 d9 f9 3d
       -0.022183739 0.06299028 -0.00036208332 0.12199724
000350 67 fe e5 bc 7a 96 a5 3d 23 73 07 3c f2 31 71 3d
       -0.02807541 0.08085342 0.008267197 0.058885522
000360 cd 8a 8f 3d d4 8f 22 be 56 ca 5b bc 7f 8f 53 bd
       0.07008896 -0.15875179 -0.01341494 -0.05165052
000370 b2 25 da bd 65 4f d0 bb d2 ea 33 3d 64 0c 2c bd
       -0.10651721 -0.006357121 0.043925114 -0.042004004
000380 51 f1 e1 3d 48 48 d8 3d 58 b0 eb 3c 4c be 82 3d
       0.110323556 0.105606616 0.02877061 0.063839525
000390 b6 71 54 bd 09 1e 89 bd 2e c1 42 bd 58 4d 69 bd
       -0.051866256 -0.06695182 -0.04754751 -0.056958526
0003a0 79 d4 52 3d e6 e2 30 be 4b f4 ec bd 83 62 29 be
       0.05147216 -0.17274055 -0.11570033 -0.16541485
0003b0 af 04 13 3c 19 f3 7f bd 64 1e f4 3d 31 09 ca bc
       0.008973285 -0.062487695 0.11919859 -0.024662586
0003c0 81 71 38 bd 9f e5 94 bd 32 76 f8 bc ba 61 07 bd
       -0.04503012 -0.07270359 -0.030329797 -0.033052184
0003d0 a5 10 0e bd 8d 96 f8 3d 8e e0 e1 3d d4 82 5f bd
       -0.034683842 0.1213809 0.110291585 -0.054568127
0003e0 f9 2f 71 3d 1e 61 ef bc e1 db 64 3d b0 0a 9c bb
       0.05888364 -0.029221114 0.055873755 -0.0047620162
0003f0 13 4a a7 3d e8 ba 57 be 42 85 f6 bd a7 78 90 bc
       0.081684254 -0.21067393 -0.12037136 -0.017635657

fc3.bias f4 [64]
000000 c5 55 61 3e 36 c6 11 bd 05 55 73 3e 41 6f f7 bd
       0.22005375 -0.03558942 0.23762901 -0.12081767
000010 be 20 c0 3c 0a 3d 0a be 46 31 b3 bd d9 3d 98 3d
       0.023453113 -0.13499847 -0.087496325 0.074336715
000020 d0 87 aa 3b 01 49 96 bd 96 ff 5a bc 6c 51 49 bd
       0.0052041784 -0.07338143 -0.0133666005 -0.049149916
000030 b1 b0 de bc 5b 35 10 3e 97 bc 69 3e 18 cc 7f bc
       -0.027183862 0.14082853 0.22825848 -0.015612625
000040 59 09 c2 bd ad 15 45 3e d2 d3 89 bd 44 0f 31 3d
       -0.09474439 0.1924655 -0.06729855 0.04322745
000050 e0 59 62 3e fd 6c 0f bd 64 a2 7c bd d4 84 8f bd
       0.22104597 -0.03501605 -0.061678305 -0.07007757
000060 62 0e 0e be 46 80 4a bd c9 e4 a0 bc 8c 65 a8 bd
       -0.13872674 -0.049438737 -0.019640343 -0.082224935
000070 e2 9e 49 bd 03 86 1f 3e c9 fd 18 3e 23 d3 72 3e
       -0.049223788 0.15578465 0.14940561 0.23713355
000080 df b9 a4 3c ec 3a b4 3c b5 48 a1 3b 74 84 37 3e
       0.020108161 0.022000752 0.0049219974 0.1792162
000090 54 a8 b0 bb cc 5b 50 3d 54 e7 13 be 33 0a 5a 3d
       -0.00539116 0.050868794 -0.14443713 0.053232383
0000a0 43 3a 4f 3d c3 c6 7c 3c af 81 14 be 80 6a 29 be
       0.050592672 0.015428248 -0.14502595 -0.16544533
0000b0 02 9d 4b bd fb d6 87 3d 19 08 72 bd f2 88 4a 3c
       -0.04971028 0.06632801 -0.059089754 0.012361752
0000c0 72 aa c0 bc 09 6e 68 bd 3b 60 76 bd 75 e5 dd 3d
       -0.023518775 -0.056745563 -0.060150366 0.10834781
0000d0 59 e9 ad bd 89 8c 3e 3e 9d f5 4d bd ba 75 09 be
       -0.08491773 0.18608297 -0.050283063 -0.13423815
0000e0 3a 2a ba bd 2a 30 53 bd e4 c1 84 bd 34 29 12 3e
       -0.09090085 -0.051559605 -0.06482294 0.1427353
0000f0 e3 63 89 bd cb 5c 29 bd 1d 69 2e be 0c 30 50 bd
       -0.06708505 -0.04134826 -0.17032285 -0.05082707

fc4.weight f4 [64, 64]
000000 9b f6 95 bd dd c3 bf 3d f8 7d a3 3c 51 2b 59 3e
       -0.07322427 0.0936353 0.019957528 0.2120793
000010 f2 0f 81 39 7f a2 63 3d a0 b8 09 bd e4 c4 f6 3d
       0.00024616678 0.05557489 -0.033623338 0.12049273
000020 62 85 ed bd b2 6d 3b 3e e9 f5 04 3e 18 d5 b2 bc
       -0.115977064 0.18303564 0.12984432 -0.021830127
000030 60 a6 b1 bd b2 10 ab 3c 62 e8 ca 3c 30 9a e3 3d
       -0.08674312 0.020881984 0.024769012 0.11113393
000040 67 e2 37 3e 52 16 d0 bd 2c ab 4a 3d 3d ba 1e bd
       0.1795746 -0.10160507 0.04947965 -0.03875183
000050 ed f5 24 be 77 5e c8 3d ef c7 27 3e f6 2b b1 3d
       -0.16109438 0.09783643 0.16384862 0.08650963
000060 58 d4 3a 3d 37 2f e9 3d 6b 66 00 3e 46 d3 1c bd
       0.045612663 0.11385959 0.1253907 -0.038287424
000070 9d 14 dd 3d e8 fd 59 be 39 0a 49 3d 6b de 14 be
       0.10794947 -0.21288264 0.049082015 -0.1453797
000080 ef 2c dc 3d 88 79 af 3d 82 74 52 3d b4 9e 2a be
       0.10750758 0.08568102 0.05138064 -0.16662103
000090 02 04 86 bd 8c 87 b7 3d 75 55 18 3e 7e 1a cd bd
       -0.06543733 0.089614004 0.1487635 -0.100148186
0000a0 6b 1f d2 3d 6f d1 4a 3d 6b f1 6c 3e 64 5a 8a 3e
       0.10259899 0.049516138 0.23138969 0.27022088
0000b0 aa 5a bd 3d c8 1b 2e bc 48 bc 67 bd c1 ae 65 3d
       0.092458084 -0.010626741 -0.056576043 0.05607486
0000c0 f9 f7 7a 3d 65 3f 0e 3e 3f 48 3c 3d f2 66 7d bd
       0.06127164 0.1389137 0.045967337 -0.061865754
0000d0 e7 c4 5f 3e a8 89 9c 3c fc bc d9 bc ea 46 dc 3c
       0.21852456 0.019108608 -0.026579373 0.026889283
0000e0 e9 53 05 3e 08 7e b1 3d 1b 7e ed bc 01 a1 8a bd
       0.1302029 0.08666617 -0.028990796 -0.0676899
0000f0 43 c7 1f 3e 78 86 87 3c 87 50 f3 3d 6f f4 af 3c
       0.15603356 0.016543612 0.11880594 0.02147886
000100 0a c5 0c be a1 12 68 3e 51 c0 63 bd 49 24 a4 3e
       -0.1374704 0.22663356 -0.05560333 0.32058933
000110 a8 15 88 3d e9 37 5e 3e b7 ee 4a 3d 73 f9 97 bd
       0.066447556 0.21701016 0.049544062 -0.074206255
000120 e8 4d bf bc 0e 23 29 3e f4 5a a3 3d 70 98 78 3c
       -0.023352578 0.16517279 0.07976332 0.015173063
000130 16 3d 50 bd ff e5 f4 bd c3 7a 6d bd e4 cc dd 3d
       -0.050839506 -0.11957931 -0.057978403 0.108300954
000140 4a 43 51 3e 3c fa 1e bc 66 c8 41 3e 30 13 cf bd
       0.20435825 -0.009703215 0.18924102 -0.101110816
000150 11 e2 00 be e3 3d 78 3d 09 5e 10 3e fd dc 74 3c
       -0.12586237 0.060605895 0.14098372 0.014945266
000160 f1 0a 68 3e 11 13 0d 3e fa df c1 3d 91 2d f1 bd
       0.22660424 0.13776805 0.09466548 -0.11776269
000170 ea ee 50 3d 57 da 56 be ed d8 c3 3d b6 aa b4 bd
       0.051009096 -0.20981728 0.0956286 -0.08821623
000180 7a d2 b0 3c be d6 c1 bd 76 e7 36 bd 66 ec a0 bd
       0.021584738 -0.09464787 -0.044654332 -0.078575894
000190 65 c2 49 3d 28 a5 d5 3c 82 59 b2 3d b8 56 a6 bd
       0.049257655 0.02607973 0.087084785 -0.08122009
0001a0 13 c4 84 3d 4c 15 83 3c 93 6b ad 3d 75 ae 90 3e
       0.06482711 0.016001366 0.08467784 0.282581
0001b0 82 90 c1 3d 00 dd 65 3b 28 8a 8f 3d 56 3c fc 3d
       0.09451391 0.0035074353 0.07008773 0.12316196
0001c0 ce e4 86 3d 0a 45 60 3d 52 50 b9 3d 0e 91 89 3d
       0.0658661 0.05475334 0.09048523 0.0671712
0001d0 a5 d0 91 3e bd 29 82 3c e8 6f c2 bc 01 0e 7c 3e
       0.28479496 0.015889043 -0.023735002 0.24614717
0001e0 af 30 e1 3d 68 25 05 3e 2c 23 54 3e 8f 41 8e be
       0.10995614 0.1300255 0.20716542 -0.27784392
0001f0 f3 f4 93 3d ae ff 92 bd 0b a6 57 3e c6 57 25 bd
       0.07224455 -0.07177673 0.21059434 -0.04036691
000200 50 4d d0 3c b1 57 b0 3d d0 12 81 3d 3d ea f5 bd
       0.02542749 0.08610476 0.06302416 -0.12007568
000210 a0 fc d3 3d 62 7c d0 bd fa f0 9a bd 6a 8e fc 3c
       0.10350919 -0.10179974 -0.07565494 0.030829627
000220 d0 bf b6 3d 9a 39 b5 bd ae b3 a0 bd 94 d0 0c bd
       0.08923304 -0.08848877 -0.07846771 -0.034378603
000230 be b0 1a bd be d3 80 3d ce c7 52 3d f6 95 e8 3d
       -0.03776621 0.062903866 0.05146008 0.11356728
000240 f1 42 8e 3d 9b 86 a1 bd 4c 01 3f bd 7e 5a a3 3d
       0.06946362 -0.07887002 -0.046632096 0.079762444
000250 5c 39 3c bd 57 33 6c 3c 94 5a b3 bc ea 41 94 bd
       -0.04595314 0.014416537 -0.021893777 -0.072391346
000260 10 d9 fe bd cd 79 9f 3c e1 96 89 3d da 13 ca 3d
       -0.12443745 0.019467259 0.06718231 0.09867068
000270 a5 bf 80 bd 0e 5b 0a bc d4 f1 47 bd dc 96 14 3d
       -0.06286553 -0.008444561 -0.04881461 0.036276683
000280 94 ee 96 bd 34 39 75 3d 8a 06 b1 bd 93 ae 75 3d
       -0.07369724 0.059869006 -0.08643825 0.05998094
000290 d8 75 8f 3b 88 a9 dd 3c 89 25 57 bd 88 86 36 3d
       0.0043780617 0.027058378 -0.05252603 0.044561893
0002a0 8b b9 90 3d 38 ae a2 bd 81 72 11 3c b2 4c 7d bd
       0.070666395 -0.07943386 0.0088773975 -0.06184072
0002b0 c9 b0 14 3d f4 38 50 3d 04 29 83 3d 8a 8b da bd
       0.036301408 0.050835565 0.064043075 -0.10671146
0002c0 40 02 1c 3c 20 74 da bd 18 76 4d bd be 44 63 3d
       0.009522021 -0.1066668 -0.05016145 0.05548548
0002d0 25 06 95 bc 8e df de bd 2a b6 13 bd 80 9b bb 3d
       -0.018191407 -0.108824834 -0.036062397 0.09160519
0002e0 77 30 5d 3d 5f 6a bb 3c ef 88 96 3d 7c ad 66 bd
       0.054001298 0.02287787 0.07350337 -0.05631779
0002f0 d2 c7 d9 bd 90 a9 6c 3c a1 02 ed bd 1e cf 9b bd
       -0.10633816 0.014444724 -0.11572767 -0.07607864
000300 a5 f5 00 3e c1 c5 49 3c 21 f5 71 3d 84 4c 2c bd
       0.12593706 0.012315215 0.059071664 -0.04206516
000310 36 89 de 3c 27 62 58 be 4c 53 ba 3d a4 9c 5c 3d
       0.027165037 -0.21131192 0.09097919 0.05386032
000320 5c bd d0 bd 71 d7 1e be 6a 75 dd 3d f8 e7 15 3d
       -0.101923674 -0.15511872 0.108134106 0.036598176
000330 53 59 8a 3c 4e e8 b9 3d 5d a5 53 bc 11 18 dc bd
       0.016888296 0.09077512 -0.012917844 -0.10746778
000340 50 ca 85 bd 68 d5 2d 3e 07 1b a8 bd 54 bc 44 bd
       -0.06532729 0.1697594 -0.0820828 -0.048031166
000350 8c c1 08 3e 00 95 d0 3d 4d 86 d3 3d 10 f9 a0 bd
       0.13355082 0.101846695 0.1032835 -0.07860005
000360 c8 52 aa bd 02 1f 8b 3b 5d 45 6c bd ec 24 f0 bd
       -0.083165705 0.00424564 -0.057683337 -0.11725792
000370 06 93 81 bd 46 11 93 3e 9e cf a8 3c e8 f8 1b 3e
       -0.063268706 0.28724116 0.020606812 0.15231669
000380 88 46 9c bc 20 1a b7 3d fe 3d be 3d 46 12 44 3e
       -0.0190766 0.0894053 0.09289168 0.19147596
000390 50 3f 0a bd e8 3d 9e bc d4 b9 48 be 3c 58 78 bd
       -0.033751786 -0.019316629 -0.19602138 -0.06063102
0003a0 2f 7f 17 bc 70 28 0c bc bb 68 34 be 2d 03 83 be
       -0.0092466315 -0.008554563 -0.17618077 -0.2558836
0003b0 71 9c 8d bc 58 b0 51 3d 10 89 7e bb ff 2a 86 3d
       -0.017286511 0.051193565 -0.003883902 0.065511696
0003c0 e8 67 25 bd 0e cc 30 be 3f 0e 02 3d 35 71 9d 3b
       -0.040382296 -0.1726534 0.031751867 0.004804755
0003d0 2d 0e 43 be fc d6 c3 bc c4 75 37 3d eb 83 95 bd
       -0.19048376 -0.023906223 0.044790044 -0.07300552
0003e0 d6 1a 98 bd 02 ea 1e be bc 29 33 be a5 40 86 3e
       -0.074269935 -0.15518954 -0.17496389 0.26221195
0003f0 37 17 04 be 48 6e da bc 64 f7 1e be 72 c5 4a bd
       -0.12899481 -0.026663914 -0.1552406 -0.049504705

fc4.bias f4 [64]
000000 a3 bc ce bd 70 12 ea bd de 3a f0 bc 8a ed 44 3d
       -0.10094573 -0.11429298 -0.029324945 0.048078097
000010 8b 63 be bd 15 28 30 3d 6c fb 6c bd a5 5a 3a 3e
       -0.0929633 0.043006975 -0.057856962 0.1819864
000020 f3 3d b5 bb 80 4b 1d be b0 4a c9 bd 8b 8d af 3d
       -0.0055310666 -0.15360832 -0.09828699 0.08571919
000030 2b 8b be 3d e6 a7 b4 bd 93 c7 2b 3d 0a 09 c2 3c
       0.09303888 -0.088210866 0.041938376 0.02368595
000040 2e e2 b1 3b 82 b6 39 3e 6e fb b5 bc c9 21 26 3e
       0.005428574 0.18136027 -0.022214618 0.16223826
000050 03 55 b3 bd 46 7b f3 3d f8 f1 e6 bd 70 38 08 be
       -0.08756449 0.11888747 -0.112766206 -0.13302779
000060 23 e5 b8 3c 93 c2 0c bd 57 9a b9 bd 77 3c b4 3d
       0.022570198 -0.034365248 -0.09062641 0.08800595
000070 75 cd d4 3d 04 34 26 3e fa 8d f6 bd 1d d7 4c 3e
       0.1039075 0.1623078 -0.12038799 0.20003934
000080 13 b3 26 3c 11 ad 0a be 40 11 a7 3b 1d 8e 6b 3e
       0.010174531 -0.13542582 0.005098492 0.2300343
000090 99 30 b9 3c 37 b9 42 3e b9 9b 03 bd d3 84 ba bd
       0.022606181 0.19015966 -0.03213093 -0.091073655
0000a0 3d 0a 05 3e f8 c0 b0 3d fe 93 47 3e 6c 89 a1 3d
       0.12992187 0.08630556 0.19490048 0.07887539
0000b0 59 5d 94 3d 80 88 9c 3c 2a b9 3f bd 87 37 0a be
       0.07244367 0.019108057 -0.046807446 -0.13497745
0000c0 70 91 65 3d be aa 94 3d 39 9c 2e 3c 46 5a db bd
       0.056046903 0.07259129 0.010657364 -0.10710578
0000d0 64 2f 83 bd 59 cc 67 3c 0b 25 45 ba a6 de 8f bd
       -0.064055234 0.014147841 -0.00075204734 -0.07024889
0000e0 3a dc a3 bd ff 6f d6 bc d5 bb 2e 3e 7f 36 9e bd
       -0.08000989 -0.02617645 0.1706384 -0.07725238
0000f0 a4 d9 4d be c7 d8 08 bd 32 56 f4 3c 6c fc fc bd
       -0.20102555 -0.03340986 0.029826257 -0.12352833

out.weight f4 [3, 64]
000000 6f 63 6b be 71 db 08 be 61 68 26 bd 23 bb 81 3e
       -0.2298715 -0.1336496 -0.040626887 0.25338086
000010 7f e3 d8 3d 54 e5 67 3e ed f6 91 be 25 64 1a 3e
       0.105902664 0.22646075 -0.28508702 0.15077265
000020 93 54 95 3d 65 34 20 be 54 67 cf bd 4b b1 c9 bd
       0.07291522 -0.15644987 -0.1012713 -0.09848269
000030 ad fc 41 3d de 09 c1 bd 88 5e 02 be 2b 58 94 bc
       0.04736011 -0.0942571 -0.12731373 -0.018108448
000040 16 b3 d6 bd b5 1c 46 3e e0 12 8b bd 57 13 99 3d
       -0.10483377 0.19346888 -0.067907095 0.07474392
000050 b8 b3 a1 3d 7c bd 78 3d 9d 9d 8d be 64 b3 c0 3c
       0.07895607 0.06072758 -0.27659312 0.02352304
000060 3d d8 54 be 33 6a 87 3c 1c cd 9c 3d 88 0f b8 bc
       -0.20785613 0.016530132 0.07656309 -0.022468343
000070 bf af 98 bc 89 25 f2 3d 00 c9 41 bd a6 50 ce 3d
       -0.01863849 0.118235655 -0.04731083 0.10073976
000080 bf 37 90 be 87 34 98 be ca a7 f8 3d 2c 5c 2b 3e
       -0.2816753 -0.29727575 0.12141378 0.1673438
000090 95 ba 00 bd 83 d4 99 bc be f8 a3 bd 34 f2 a5 be
       -0.03142794 -0.018778091 -0.08006428 -0.3241135
0000a0 cc d5 52 3e ed 19 c7 bd c9 a6 a8 3e cb 93 e5 3c
       0.2058937 -0.09721742 0.32939747 0.028024575
0000b0 18 05 f6 bd 5f dc 7d 3e cd 34 a2 bd f8 8a 52 be
       -0.1201269 0.24791096 -0.07920227 -0.20560825
0000c0 66 82 99 3d 5e 8f 8f 3e 61 9f 73 be 90 1a d6 3c
       0.07495575 0.28039068 -0.23791267 0.026135713
0000d0 67 3f cc bc a4 0d 25 bd 60 e2 93 3b 16 18 6e 3e
       -0.024932576 -0.04029621 0.00451307 0.23251376
0000e0 be 21 76 be 5e 2d ae bd c8 f8 02 3e ec b6 bb bd
       -0.24036309 -0.08504747 0.12790215 -0.09165749
0000f0 1d 81 7f be 32 40 73 3d 84 82 a5 bd 90 e2 78 3d
       -0.24951597 0.059387393 -0.080815345 0.06076294
000100 7b 24 40 3e 06 8a 65 3e 50 80 5b 3c 73 1b 8c be
       0.18763916 0.22415933 0.013397291 -0.27364692
000110 fe d4 43 3d 5d 6c b1 bd b3 ba d1 3d 10 d3 bb bc
       0.047810547 -0.08663247 0.10240688 -0.02292779
000120 92 f9 23 bd 6d 12 90 3e bb da 53 be ca 52 3f 3e
       -0.04003293 0.28139058 -0.20688908 0.18683925
000130 37 98 c0 3d bc 14 1e 3d f8 28 3a be fd df 40 3c
       0.09404033 0.038593993 -0.18179691 0.011772153
000140 9f 82 a1 bd 32 d5 a0 be 49 d4 1b be 51 af 3f 3d
       -0.07886242 -0.31412655 -0.15217699 0.046798054
000150 42 13 52 be 1e c6 c0 3d 84 58 5d 3e a4 37 e5 bd
       -0.20515159 0.09412788 0.21615797 -0.11192253
000160 df cd 83 3e cf a9 d9 3d 95 a6 6d 3d ba 53 2e be
       0.25743005 0.106280915 0.058020193 -0.17024127
000170 d8 4e ed 3d 04 34 1f be e7 77 68 be a3 e1 d9 ba
       0.11587304 -0.15547186 -0.22701989 -0.0016623031
000180 fd 0d 26 3e 8b 96 6f 3e 70 aa 48 3c 76 89 c3 bc
       0.16216274 0.23397271 0.012247667 -0.023869257
000190 88 b5 f5 bd 75 a0 e7 bd 50 d0 86 bd 85 40 8c 3a
       -0.11997515 -0.113099016 -0.06582701 0.0010700381
0001a0 27 89 c5 bd 90 f6 0f 3e e7 88 6f be 72 f7 1b bd
       -0.096453 0.140589 -0.23392068 -0.03807778
0001b0 64 07 c4 bd f0 6f 97 be 16 90 10 3e 3f 2b fb 3d
       -0.09571722 -0.2957759 0.14117464 0.12264108
0001c0 8c 95 b2 3c 5f b7 a1 be d4 df 3e 3e 7a 79 cb bd
       0.021799825 -0.31585214 0.18640071 -0.09935279
0001d0 8d ef 2e be 2c dd 23 3d c3 42 bb 3d 91 0d 92 be
       -0.17083569 0.040005848 0.09143593 -0.28525975
0001e0 e0 96 54 3e 07 f1 20 bb 97 00 b4 bc ca 57 08 be
       0.20760679 -0.0024557726 -0.021972938 -0.13314739
0001f0 49 0a 20 3e 8c 65 7d bd ff 42 23 3d 5c c8 41 3d
       0.15628923 -0.06186442 0.039858814 0.04731022
000200 1f 3a d8 3d 54 71 36 3e c2 ae 3c bc 78 59 45 be
       0.10557961 0.17816669 -0.011516275 -0.19272411
000210 54 7b 82 3d ac d5 0f be 74 ca 92 3d 2e 77 6f be
       0.06371179 -0.14046353 0.07167521 -0.23385307
000220 ff 04 e6 bd 12 3d 12 3e 63 3e 0c 3d b4 a0 25 be
       -0.11231422 0.14281109 0.034239184 -0.16174585
000230 98 0f dd bd 80 4d a9 3c 2e fb eb 3c f2 d4 8a be
       -0.1079399 0.020666838 0.028806295 -0.2711559
000240 8d 80 c6 3d 6d a3 31 3d de 24 1d 3e 13 7d 2d be
       0.09692488 0.043368746 0.15346095 -0.16942243
000250 ee d0 24 3e 30 67 db 3c 6f 8e 76 3d fa 29 3a 3e
       0.16095325 0.026782602 0.06019443 0.18180075
000260 50 30 8e 3c 12 a3 b9 bd fd 0f e0 3d c4 00 ba bc
       0.017357022 -0.09064306 0.109405495 -0.022705443
000270 24 1a f6 bd 16 3b 1f bb 6f 91 09 3e d9 d9 55 be
       -0.12016705 -0.0024296693 0.13434385 -0.20883884
000280 09 b0 93 3d 18 4c 03 3e 76 40 d8 3d 74 39 1c be
       0.072113104 0.12821996 0.1055917 -0.15256292
000290 ef 90 04 3e 8a d2 5c be 61 b8 eb 3d af a2 04 3e
       0.12945913 -0.2156469 0.11509777 0.12952684
0002a0 85 fd 4f be bf 16 fe bd 2e 63 29 bd 7d d1 d3 3d
       -0.20311554 -0.12406682 -0.04135435 0.10342691
0002b0 6e 88 84 3d 1e b4 86 bd ad 09 4a be 9c 96 05 be
       0.064713344 -0.065773234 -0.19730254 -0.13045734
0002c0 d1 08 e7 3d 27 5c 6e be de 33 22 3e 24 c5 3e 3d
       0.112809785 -0.23277341 0.15840098 0.046574727
0002d0 01 59 8e 3d 65 b8 66 bc f5 b4 8a 3d d0 ee 9f bd
       0.0695057 -0.014082049 0.06772796 -0.07809222
0002e0 05 1e 22 3e b1 af bc bc 1e 2b 7d be 26 bf 04 3e
       0.15831764 -0.023032995 -0.24723479 0.12963542
0002f0 a7 ae 2c 3e 77 5c 1e bd d3 59 3d be 88 b6 89 bc
       0.168635 -0.0386624 -0.18491296 -0.01681067

out.bias f4 [3]
000000 9c 6a 2d 3e 82 11 72 bb 30 1a 64 bc
       0.169352 -0.0036936705 -0.013922259
